doctor_offline/review_model/BERT_RNN.pth (torch, 461791 bytes, 4 tensors)

i2h.weight f4 [128, 896]
000000 b5 21 05 3d 19 e5 be bc a4 ae e2 3c 8e 53 f9 bc
       0.03250285 -0.023302602 0.027671166 -0.03043535
000010 68 ad 8c 3c 23 e8 e7 3c 95 ba 96 bc 98 38 eb bc
       0.01717253 0.028308934 -0.018399516 -0.02871351
000020 b3 6d a3 3c 12 be 30 bd 22 c6 5a bc f0 b6 7c bc
       0.01994977 -0.043150015 -0.013352903 -0.015424475
000030 25 a3 08 ba 53 ae 55 bd 8b 48 0d bc 36 01 32 3c
       -0.0005212299 -0.0521682 -0.008623253 0.0108645465
000040 fd 30 24 3c b8 40 41 bd f1 90 dd bc 2b 69 fb 3c
       0.010021445 -0.04718086 -0.027046653 0.030689796
000050 80 18 3f bc a2 73 c8 ba 1e f2 4d 3c 28 75 fb 3b
       -0.011663556 -0.001529325 0.012569932 0.007673878
000060 9e fa 12 3c c2 45 22 3c 93 7d 94 3c 28 56 99 bb
       0.008970885 0.009904327 0.018126285 -0.00467946
000070 4b 91 1f 3b b8 46 b7 3c 37 bd e2 3c f5 c1 a5 3c
       0.0024348076 0.022372589 0.027678115 0.020234087
000080 59 3b 5e bd db 3b 5f 3c 35 dd a7 bb 13 79 d3 bc
       -0.054255817 0.0136251105 -0.0051228055 -0.025814569
000090 9c cf cd bc 29 50 f4 3c ae e9 59 3b fe 29 f2 3c
       -0.02512341 0.02982338 0.0033250856 0.029561039
0000a0 6e c4 ab bc b7 33 28 3c d2 00 5a 3c 11 f6 5d bc
       -0.020967688 0.010266236 0.01330586 -0.013547436
0000b0 ef 59 bb 3c d5 d9 8e 3c 3e 0b b5 bb 29 97 25 3c
       0.022870032 0.017437855 -0.005525022 0.01010684
0000c0 70 d0 35 3d a1 88 61 bc 84 7e b2 bc 8b e0 00 bd
       0.044388235 -0.013765485 -0.021788843 -0.03146414
0000d0 61 df 85 bc b0 8e 2c bd 1c c5 d7 3c 99 a4 81 3c
       -0.016341867 -0.042128265 0.026339106 0.015825557
0000e0 39 1d 45 bd d9 b4 5e 3b a9 7b e0 b9 74 d9 39 3d
       -0.048123572 0.0033982305 -0.00042816743 0.045373395
0000f0 83 8f 21 3d 5b b9 15 bc a8 69 2e bb b2 ca 99 bc
       0.039443504 -0.0091384305 -0.002661327 -0.01877341
000100 7c c8 14 3c 7a 9c 04 3d bd a9 2a 3c b7 d7 aa bc
       0.009081002 0.03237579 0.010416445 -0.020854814
000110 07 2b 54 3d 4f e8 06 bd 28 9c dc 3b a9 86 11 bd
       0.051798847 -0.03293639 0.0067324825 -0.035528813
000120 a7 51 e8 3c 49 fc ed 3c e0 84 63 bc c9 33 df 3c
       0.028359247 0.029050963 -0.01388666 0.027246373
000130 03 b0 92 3c aa ca 01 3d 3e 82 82 3d e6 d6 1b bc
       0.017906195 0.031687416 0.06372498 -0.009511685
000140 e8 f9 2e bb 9d aa d7 bb 88 5c 98 3b ac 3f 49 3d
       -0.0026699249 -0.006581618 0.0046497025 0.049132988
000150 95 20 0f 3c 73 0d 17 bb d3 bb 1d 3c 23 a7 dd bc
       0.0087357955 -0.0023048788 0.0096273 -0.027057236
000160 7b e9 66 3d 45 fe ca ba a5 78 12 bd a2 9d 0f bd
       0.056375008 -0.0015487155 -0.035759587 -0.03506244
000170 1f 35 55 3c 7a 29 af 3a 4d 34 5e bc bb d1 2f 3d
       0.013013153 0.0013363801 -0.013562274 0.042924624
000180 63 e1 ad bc 0e 55 b4 bc 50 4d 1b bb 1b c0 d5 bc
       -0.021225637 -0.022013213 -0.0023697205 -0.02609258
000190 55 61 cb bc 1c a4 f0 bc ac 37 de bc e6 a4 c9 3c
       -0.024826685 -0.029375128 -0.027126156 0.024614763
0001a0 c6 94 87 3b 53 11 98 3c b8 f6 0c 3c 35 99 87 3b
       0.004137608 0.018562948 0.008603744 0.0041381367
0001b0 61 58 de bc 42 4a df 3c 65 88 3b bd 43 3f 32 bd
       -0.027141752 0.027257089 -0.045784373 -0.043517362
0001c0 51 1a a2 b9 9e fb dd 3c eb e3 58 bc d2 a0 c6 ba
       -0.00030918655 0.02709752 -0.013237934 -0.0015154129
0001d0 73 05 3d bd f2 2f bc bb 74 41 82 3c c9 1f 62 3c
       -0.046147775 -0.00574302 0.015900351 0.0138015235
0001e0 87 5c ad bb 98 90 57 3d 8f d2 87 bc 91 0a a9 bc
       -0.005290571 0.05262813 -0.016579894 -0.020634921
0001f0 22 af 82 3c 47 bf 3b bc dd 12 73 3a ff 4c 79 bc
       0.01595265 -0.011459178 0.0009272525 -0.015216111
000200 17 e5 a6 3c fb 93 07 bd 91 d0 b6 3c bb d2 0f bd
       0.02037291 -0.03310011 0.02231625 -0.035113078
000210 e0 c6 36 bc f9 4e 46 bc 18 c9 20 3c 2c 9f 52 3d
       -0.011155814 -0.0121037895 0.0098135695 0.05142133
000220 5b 99 c9 bc aa f0 40 bc f5 89 57 bd ba 40 83 3b
       -0.024609258 -0.011776129 -0.0526218 0.0040055187
000230 8c 43 28 3b c9 37 21 bb 51 bf 10 bc e4 28 60 3d
       0.0025675027 -0.00245999 -0.008834676 0.054726496
000240 af b1 31 bd db ef 83 3b db cc 2d bd 7a 9d 50 bb
       -0.043382343 0.0040263957 -0.042431694 -0.0031832145
000250 07 1b 63 bc ef 7a 6c 3d c0 0a 00 3d 0e ba 3b 3d
       -0.013861424 0.057734426 0.031260252 0.045831732
000260 a4 99 71 3c ec b6 63 3c c1 9d 25 3d 5d 99 3b bc
       0.014746103 0.013898592 0.04043365 -0.011450139
000270 b5 97 22 3c 8b 6f 35 bd f7 7d 0a bd 46 98 64 3d
       0.009923865 -0.04429583 -0.033811536 0.05580928
000280 03 65 e2 bb 2e f6 a9 bc 0d 76 a7 bc de 9a 88 3c
       -0.006909014 -0.02074727 -0.020442033 0.016675409
000290 cb ca e6 3c c5 6d ea bc 60 83 c1 3a 40 dc d2 bb
       0.028172871 -0.028616795 0.0014763884 -0.0064349473
0002a0 a4 71 76 3c 02 72 66 3a 26 9d 42 bd fe 3a 4a bc
       0.0150417425 0.0008790792 -0.04751315 -0.012343166
0002b0 fc a7 9d bc 63 ff 15 bd 00 7f 66 bc 9e fd a5 3c
       -0.01924514 -0.03662051 -0.014068365 0.020262536
0002c0 30 bf 3a bc 4f 75 ff 3c af 5b dd 3c 3b 13 59 bc
       -0.011398122 0.031183867 0.027021257 -0.013249214
0002d0 9a 40 2c bd 1a 2f 2d bd fb 34 ff 3c bc c7 0e 3d
       -0.042053796 -0.042281248 0.031153193 0.03485845
0002e0 5c b7 b4 3c 21 7e 89 3c 58 4e 20 3c 8f 28 9e 3c
       0.022060089 0.016783776 0.009784304 0.01930645
0002f0 3b 07 3d bb 32 b2 57 3c bb a2 ae 3c c9 af 8c 3c
       -0.002884342 0.013165044 0.02131783 0.017173665
000300 7f a2 c3 bc 9b 19 c4 bc a3 a6 4b bd 4f 9c 17 3d
       -0.023881195 -0.02393799 -0.049719464 0.037014302
000310 6e 6f db bb 30 68 2e 3d 6e 9a e5 3c ec 2b c5 bc
       -0.006696633 0.04257983 0.02802774 -0.024068795
000320 4f 21 4d 3d 29 f4 b8 bb d1 97 47 bb da 74 68 bd
       0.050080594 -0.0056443405 -0.003045548 -0.056752063
000330 21 7b 7f bc ac c7 a6 3c da f0 63 bd ff de 02 bd
       -0.015593321 0.020358883 -0.055649616 -0.031950947
000340 5e a0 15 bc c2 1b 0f bb 88 9a be 3c fd 15 9d bc
       -0.009132473 -0.0021836613 0.023267046 -0.019175524
000350 91 29 8c bc 78 e9 ca 3a a1 bc 08 3d 94 7c 92 3c
       -0.017109664 0.0015480956 0.033383016 0.01788167
000360 51 58 0a 3d 6c dd 78 ba ee 69 3a bc 25 41 10 bd
       0.03377563 -0.00094934436 -0.011377795 -0.035218377
000370 5d a4 38 bd 45 ff 84 3c 28 52 8f bc 58 8d d1 39
       -0.045078624 0.016235003 -0.01749523 0.00039968896
000380 ae f9 cf bc 35 c0 ed ba e4 66 2c 3c 0a 12 1d 3d
       -0.025387611 -0.0018138947 0.010522578 0.03834728
000390 c7 80 1a bd af 36 81 bc bd 37 13 3d 8f 66 2b bb
       -0.037720468 -0.015773145 0.035941828 -0.002615366
0003a0 34 1a 14 bd cb 91 8e 3c 69 18 9b b9 41 4d c6 bb
       -0.0361578 0.017403504 -0.0002958209 -0.00605169
0003b0 52 27 d1 bc c7 2c dc bc c8 ac 53 bc e6 39 68 3c
       -0.025531445 -0.02687682 -0.012919612 0.01417396
0003c0 a4 50 f1 3c af 86 b8 3c 3c 4d 01 bd 47 c3 40 bb
       0.029457398 0.02252516 -0.031567797 -0.002941327
0003d0 c7 75 4d 3b 28 58 a4 3c f7 f5 37 bd c9 a6 59 bb
       0.0031350718 0.020061567 -0.044912305 -0.0033210984
0003e0 ee 79 a2 bc 7d c3 17 bd 36 e7 08 3d f6 cf 23 bd
       -0.019833531 -0.037051667 0.033423625 -0.03999325
0003f0 69 23 85 bd 69 ff b0 3c bd 5e 16 bc 0a f9 05 bc
       -0.065008946 0.021606164 -0.009177861 -0.008177051

i2h.bias f4 [128]
000000 3a 11 61 bb 72 9d aa bc a2 8c b1 3c b2 80 d8 bc
       -0.0034342543 -0.020827029 0.021673504 -0.026428554
000010 6f 75 da bc ff 16 80 bc c3 51 cb ba 9c bf cc 3a
       -0.026667325 -0.015635965 -0.0015512038 0.0015621069
000020 81 7e b6 3c a4 cc 19 bc c4 03 fa 3c 9a 41 94 bc
       0.022277119 -0.009387169 0.030519374 -0.018097688
000030 4d e8 3e bc 02 55 fb b9 13 ea 7b 3c 41 68 15 3c
       -0.0116520645 -0.00047937786 0.015375632 0.009119094
000040 96 af de 3b d7 42 aa 3b b0 e4 e7 3c 7c ad b9 bb
       0.006795834 0.005195956 0.028307289 -0.005666433
000050 0c da c1 bc 24 3b d8 3c be 07 25 3c 44 af 00 bc
       -0.023663543 0.026395388 0.010072647 -0.007854287
000060 8b c5 7f 3b 77 c6 4f bb 71 2f 89 bc 44 a8 0d 3c
       0.0039027657 -0.0031703988 -0.016746255 0.008646075
000070 9c 2c 65 3c 9d 37 d2 bc 13 c6 f0 bb bb b9 09 3d
       0.0139876865 -0.025661284 -0.007347831 0.033624392
000080 bd 02 13 bd 42 a8 ad bc 0b cb 09 3d 71 d8 14 3c
       -0.035891283 -0.021198396 0.033640902 0.009084807
000090 dd 72 e3 bc 33 d3 3c bc ec c2 90 bc b7 25 aa bc
       -0.027764732 -0.011524963 -0.017671071 -0.020769937
0000a0 b5 bf e9 3b c9 92 fa bc 5c 78 f4 3a 0a 5a f8 bc
       0.007133449 -0.03058757 0.0018651593 -0.030316371
0000b0 3f ad ac bb 32 3d a5 3c 8f 39 39 3c 1d 0d ba bc
       -0.005269676 0.020170782 0.011305227 -0.022711331
0000c0 74 2f a5 3c 60 fb 77 3c 80 2d aa 3c c3 d3 0c 3c
       0.020164229 0.015135616 0.02077365 0.00859541
0000d0 d5 16 57 3c 03 26 86 bc 3f df 85 bc 67 e6 04 bc
       0.013128002 -0.016375547 -0.016341804 -0.008111573
0000e0 dc c2 83 bc 50 86 67 bc a0 63 ee bc 05 45 90 3c
       -0.016084127 -0.014131144 -0.02910024 0.017611036
0000f0 c8 b1 4c 3c 24 f9 ba bc d6 96 01 bd fd f3 72 bc
       0.012493558 -0.022823878 -0.03163799 -0.014828679
000100 b7 3f a3 bc e9 d9 5f bc 36 85 af 3b d1 6c f0 bc
       -0.019927843 -0.013662794 0.005356456 -0.029348763
000110 d1 d6 f0 3c ec 38 74 bb 0c 90 89 bc 35 b9 21 bc
       0.029399307 -0.0037265373 -0.01679232 -0.009870817
000120 91 c8 05 3c 1f 37 7f bc 93 88 1a 3c c9 89 2f 3c
       0.008165495 -0.015577107 0.009431976 0.010714003
000130 61 0d 31 bc e8 43 d9 3c ed 54 c1 3c b4 61 6f 3b
       -0.010806412 0.026521638 0.023600066 0.0036526741
000140 d9 18 2b 3b b5 ed 92 3c 70 56 fc 3c 12 2c ef bc
       0.002610734 0.017935613 0.030802935 -0.029195819
000150 83 d4 8f bb b6 24 ac 3c 2f b9 53 3c b6 72 82 3c
       -0.004389347 0.021013599 0.012922569 0.015923839
000160 ed 8c 11 bc 5e 74 57 bc a2 01 df bc a4 c4 c5 bc
       -0.008883697 -0.013150303 -0.027222458 -0.024141617
000170 d2 54 67 bc 96 2f 16 3d 4f 05 b1 bc 0f 85 ac 3c
       -0.014119344 0.036666475 -0.021608977 0.021059541
000180 e6 f2 ee 3c b7 b7 a5 3c 3b d4 bc bc de 01 9e 3c
       0.029168557 0.020229204 -0.023050418 0.019288
000190 c7 19 a3 bb e2 1d bb ba 3f 5f 45 3a d7 9b af 3c
       -0.004977438 -0.0014275874 0.00075291464 0.021436615
0001a0 34 05 d6 bc 33 0c f0 3c fa 7c 78 3b e8 b7 b5 3c
       -0.026125528 0.029302692 0.0037916289 0.02218242
0001b0 19 6c 2c bc eb 9e b6 3b 50 73 f8 bb 57 4c 6f bb
       -0.010523819 0.0055731437 -0.0075821057 -0.0036514008
0001c0 53 8e 68 3b d5 2d 17 bd 7c 7a 26 bb 1a 11 20 3b
       0.0035485222 -0.036908943 -0.0025402596 0.0024424256
0001d0 c9 42 91 bb 74 f3 97 3c fe fc 0e bd 8b f1 83 3c
       -0.0044330102 0.018548705 -0.03490924 0.016106388
0001e0 10 7c 5d 3c f7 c5 d4 3c 46 ee 48 3c d7 38 7f ba
       0.013518348 0.025973303 0.01226384 -0.0009735948
0001f0 a9 83 01 bd be 03 27 3b f6 dc bd 3c a5 bd aa bb
       -0.0316197 0.0025484408 0.023176651 -0.0052105957

i2o.weight f4 [2, 128]
000000 96 86 14 bd cd 92 27 3d 83 20 0d bd 71 d9 d2 bd
       -0.036261164 0.040911485 -0.034454834 -0.1029538
000010 3c dd 6f 3e 42 bb 2d bd bd 9b d6 bd c1 5c d7 3b
       0.23424238 -0.04241491 -0.104789235 0.0065723364
000020 52 46 31 3e ef 45 99 3d 0a 4b 8d ba 9f 23 f2 bd
       0.17311981 0.07484042 -0.001077981 -0.118232004
000030 0d d6 53 3c 5e ea dc bc fe 3f ab bd 5a 2d 14 be
       0.012929452 -0.026967224 -0.08361815 -0.14470425
000040 7b a2 08 be e4 75 20 3d a7 c1 96 bd 48 10 fe bd
       -0.13343231 0.03917493 -0.07361155 -0.12405449
000050 37 fa 39 bb 3e d3 db 3d 73 b4 34 3e 05 17 07 3e
       -0.00283779 0.107336506 0.17646961 0.13192375
000060 7e a7 1a bd b7 60 1d bd c8 10 92 bd f4 15 fa bd
       -0.03775739 -0.038422313 -0.07132107 -0.122112185
000070 fc 0d 15 3e 86 5d 38 be 32 42 c1 3d 73 86 a7 3d
       0.14556116 -0.18004426 0.09436454 0.08179941
000080 8b be 3f bc a2 19 e0 3d de 84 47 3c c4 28 18 be
       -0.011703144 0.10942389 0.012177674 -0.14859301
000090 9d f3 ee bc 3f 73 d3 3d d9 71 8d be 48 dd 0c be
       -0.029168898 0.10324716 -0.2762592 -0.13756287
0000a0 43 fd 0b 3d fc 44 a8 bc 46 68 73 3d 7e 2d c9 bd
       0.034177076 -0.020540707 0.059425615 -0.0982313
0000b0 50 2e b1 3d c9 90 8c bd db d6 20 be 2f 86 b8 bd
       0.086514115 -0.06863553 -0.15706961 -0.090099685
0000c0 c7 15 b2 be 6b ae 78 be a0 b4 8b 3b 6f 54 22 be
       -0.3478224 -0.24285285 0.0042634755 -0.15852521
0000d0 ab be c1 bc bb 81 a1 bc 67 f7 76 3e 2b 7f 53 bc
       -0.023650488 -0.01971518 0.24117814 -0.012908737
0000e0 5e fd 6a 3c 4a d1 0b 3e 7f e9 0a be eb c6 c8 3d
       0.014342634 0.13654056 -0.13565634 0.098035656
0000f0 23 ef bc bc 2a 82 10 bc 64 13 71 3c 9c 47 6d be
       -0.023063248 -0.008820096 0.014714096 -0.23171848
000100 7e e6 c4 3d bd 88 ce bd 23 36 82 bd a5 f0 2b 3e
       0.096142754 -0.100846745 -0.06357982 0.16791017
000110 fe 66 e2 3d 59 39 0b 3e 00 37 a6 bd 7d 77 ad be
       0.110548005 0.13596095 -0.08115959 -0.33880225
000120 02 73 99 3d a2 f5 29 be 8d 4c 4e 3e e6 1c a1 3a
       0.07492639 -0.16597608 0.2014639 0.0012291938
000130 79 84 9b 3e 59 e8 17 be 79 39 cc 3b c5 1b 3f bd
       0.30374506 -0.14834727 0.006232437 -0.046657342
000140 f5 08 3e bd e8 ef 9b bd 31 c3 87 3d 5b 62 34 3e
       -0.04639526 -0.07614118 0.06629027 0.17615645
000150 4c e2 a1 bd 33 ca 40 3e 40 03 82 3d fb 5c 6c bc
       -0.07904491 0.18827133 0.06348276 -0.014426465
000160 9c e5 64 3d 8e f9 4c 3d c0 f9 83 3c 62 9f 31 bd
       0.055883035 0.05004268 0.016110301 -0.04336489
000170 d5 c1 26 bb da 9f 70 3e 62 85 8e 3c d1 62 6f bd
       -0.0025445123 0.23498479 0.017397586 -0.058443848
000180 7e 0a 57 bc 85 af 01 3e b1 52 3f bc 0b 35 5d 3d
       -0.01312506 0.12664612 -0.01167743 0.054005664
000190 17 5b 08 be 2f 1d 59 3d 24 be 63 3e 92 be d0 bd
       -0.13315998 0.053006347 0.22240502 -0.101925984
0001a0 ed 11 ae 3d cb 92 a8 bd de d0 aa 3d 20 56 b1 be
       0.08499513 -0.082311235 0.083406195 -0.3463602
0001b0 62 72 81 3d 18 2b c8 bc c5 4c 0c 3e 64 cf bc bd
       0.06320645 -0.024434611 0.1370116 -0.09219244
0001c0 89 d7 68 3d cc 18 99 3e 08 1b 90 bc 2c 5e 27 3b
       0.056846175 0.2990173 -0.017591015 0.0025538309
0001d0 ab 97 63 3e 01 c0 5d bd 46 74 97 3d 44 95 1c be
       0.22225825 -0.054138187 0.07395224 -0.15291315
0001e0 11 63 27 3d 48 37 0b bc 6f 39 54 3c 78 b0 35 bd
       0.04086596 -0.008497067 0.012953146 -0.044357747
0001f0 b6 23 d0 bc b3 bf 3f be 6a ee 43 be 56 b3 75 3e
       -0.025407653 -0.18725471 -0.19133916 0.23994192
000200 34 98 56 3d e9 d8 cd 3b 56 0d f1 bc 74 cf 4d bd
       0.052391246 0.006281961 -0.029425304 -0.05024667
000210 f5 6b 4a be 93 a3 d9 bc a6 d4 0d 3e fb 7e 95 3d
       -0.19767745 -0.026567256 0.1385065 0.0729961
000220 8e 14 01 be 8f f5 ed 3c 3d 0b ce 3d d6 f6 e3 3d
       -0.12605497 0.029047756 0.10060737 0.111310646
000230 0c d1 2b 3c 4c 88 6d bd 28 44 32 3e 76 d4 87 3d
       0.010486852 -0.05799131 0.17408812 0.066323206
000240 09 a4 15 3e f1 e8 c0 3d ff c0 f6 3d 11 8f 2f 3e
       0.14613356 0.0941943 0.1204853 0.17144419
000250 4a f4 e2 3d 3b f2 2c bd da 66 17 bd a0 5f 94 bd
       0.11081751 -0.042223196 -0.03696332 -0.072448015
000260 ce 46 c1 3d 7b 1c 44 3d 3c d6 44 3d 80 f0 59 3e
       0.09437333 0.047878724 0.048055872 0.2128315
000270 11 d2 1e be fe f7 3c 3e 74 d3 f7 bd 82 03 44 3d
       -0.15509821 0.18453977 -0.12100878 0.047854908
000280 36 02 9b 3d 43 79 11 be b1 da f8 bd e0 f0 24 3d
       0.07568781 -0.14206414 -0.12151087 0.04026878
000290 e1 3f 9c 3c f9 a6 37 bd 6a 04 85 3e d5 fe 96 3b
       0.019073429 -0.044836972 0.2597993 0.004608015
0002a0 c8 5c 32 bd d1 cd e9 bd 0e 73 48 bd 68 3a bb 3b
       -0.043545514 -0.114162095 -0.04893785 0.0057137497
0002b0 77 62 49 be fc 4b 11 bc 84 44 6d 3d 5d 9e ec 3d
       -0.19666468 -0.008868214 0.05792667 0.11553643
0002c0 3e 25 a5 3e 4d e5 55 3e 56 24 11 3d f5 41 15 3e
       0.32254976 0.20888253 0.035435043 0.14575942
0002d0 b8 e7 c8 bd 7b 59 45 3c 6f 57 a9 be 4d b7 21 bd
       -0.09809822 0.01204526 -0.3307452 -0.03948145
0002e0 ee 5a dd 3c 8e 88 14 be 92 8e 17 3e fd 4e 94 bd
       0.027020898 -0.14505216 0.1480048 -0.07241628
0002f0 8b 07 1a bd 51 92 90 bd c7 0c 37 3d 2a 67 aa 3e
       -0.03760485 -0.07059158 0.04468992 0.33281833
000300 d9 16 7c 3b 89 00 8d bc 07 9f d1 bc d2 c7 23 be
       0.0038465767 -0.01721217 -0.025588525 -0.15994194
000310 7f a5 92 bd 22 58 73 bd e4 49 6c bd 1c 5b 93 3e
       -0.07160472 -0.059410222 -0.057687655 0.28780448
000320 0a 0f 10 be 22 b8 bf 3d f3 01 81 be aa b4 08 3d
       -0.14068237 0.093612924 -0.251968 0.03337542
000330 2d f6 72 be d5 46 b3 38 e1 88 cc 3d 3d 25 91 bd
       -0.23726721 8.5485786e-05 0.09987045 -0.07087181
000340 33 d9 ca 3d 4b 5a c5 3d 5e 95 86 bd 35 dd 1d be
       0.09904709 0.09636363 -0.06571458 -0.15416415
000350 ad a6 a2 3c d0 bc 2e be c1 eb c1 bd 8b e4 84 bd
       0.019854868 -0.17064214 -0.094687946 -0.064889036
000360 12 c4 4a 3d 16 34 d3 bc 68 0a 01 3e 16 e1 d4 3c
       0.049503393 -0.025781672 0.12601626 0.025986236
000370 4a 08 91 3d f4 c7 1d be 74 6b 9c 3d 8b c1 49 bc
       0.07081659 -0.15408307 0.076376826 -0.012314211
000380 5e 91 53 bd 8d 7c 78 bc 78 20 4f 3d 78 25 9b 3c
       -0.051652305 -0.015166414 0.050568074 0.018938765
000390 cd 60 15 3e d5 f4 62 3d 80 ee 93 be fc cc 84 3d
       0.14587708 0.05540927 -0.288929 0.0648441
0003a0 07 de 78 bd 40 61 9c 3d 6d f5 98 bd 1e 4b b5 3e
       -0.060758617 0.076357365 -0.07468686 0.35408872
0003b0 4e c9 30 be 11 9a 95 3c ef 95 57 be 09 fc c3 3d
       -0.17264292 0.018261941 -0.21053289 0.09569556
0003c0 d1 e8 c7 bc df ca 8d be 40 b7 81 bd 15 76 dc 3c
       -0.024403008 -0.2769384 -0.0633378 0.026911775
0003d0 34 a1 01 be cd f1 ad 3c f5 b0 cd bd 84 2f 04 3e
       -0.1265915 0.021233464 -0.100435175 0.12908751
0003e0 12 61 1a bc 65 f6 e8 3d 5e 45 e7 bd de d6 03 3e
       -0.009422557 0.11375121 -0.112925276 0.12874934
0003f0 2a 66 67 3d b9 09 2f 3e 0f 5a 47 3d 2a f2 48 be
       0.056493916 0.17093553 0.04866987 -0.19623628

i2o.bias f4 [2]
000000 f7 86 4e ba c0 a4 56 3d
       -0.00078783877 0.05240321
